<?xml version="1.0"?>
<net name="detokenizer" version="11">
	<layers>
		<layer id="0" name="Parameter_55195" type="Parameter" version="opset1">
			<data shape="?,?" element_type="i64" />
			<output>
				<port id="0" precision="I64" names="Parameter_55195">
					<dim>-1</dim>
					<dim>-1</dim>
				</port>
			</output>
		</layer>
		<layer id="1" name="Convert_55212" type="Convert" version="opset1">
			<data destination_type="i32" />
			<input>
				<port id="0" precision="I64">
					<dim>-1</dim>
					<dim>-1</dim>
				</port>
			</input>
			<output>
				<port id="1" precision="I32">
					<dim>-1</dim>
					<dim>-1</dim>
				</port>
			</output>
		</layer>
		<layer id="2" name="Constant_55156" type="Const" version="opset1">
			<data element_type="u8" shape="528248" offset="0" size="528248" />
			<output>
				<port id="0" precision="U8">
					<dim>528248</dim>
				</port>
			</output>
		</layer>
		<layer id="3" name="StringTensorUnpack_55157" type="StringTensorUnpack" version="extension">
			<data mode="begins_ends" />
			<input>
				<port id="0" precision="U8">
					<dim>528248</dim>
				</port>
			</input>
			<output>
				<port id="1" precision="I32">
					<dim>-1</dim>
				</port>
				<port id="2" precision="I32">
					<dim>-1</dim>
				</port>
				<port id="3" precision="U8">
					<dim>-1</dim>
				</port>
			</output>
		</layer>
		<layer id="4" name="VocabDecoder_55196" type="VocabDecoder" version="extension">
			<data skip_tokens="50257, 50258, 50259, 50260, 50261, 50262, 50263, 50264, 50265, 50266, 50267, 50268, 50269, 50270, 50271, 50272, 50273, 50274, 50275, 50276, 50277, 50278, 50279, 50280, 50281, 50282, 50283, 50284, 50285, 50286, 50287, 50288, 50289, 50290, 50291, 50292, 50293, 50294, 50295, 50296, 50297, 50298, 50299, 50300, 50301, 50302, 50303, 50304, 50305, 50306, 50307, 50308, 50309, 50310, 50311, 50312, 50313, 50314, 50315, 50316, 50317, 50318, 50319, 50320, 50321, 50322, 50323, 50324, 50325, 50326, 50327, 50328, 50329, 50330, 50331, 50332, 50333, 50334, 50335, 50336, 50337, 50338, 50339, 50340, 50341, 50342, 50343, 50344, 50345, 50346, 50347, 50348, 50349, 50350, 50351, 50352, 50353, 50354, 50355, 50356, 50357, 50358, 50359, 50360, 50361, 50362, 50363" />
			<input>
				<port id="0" precision="I32">
					<dim>-1</dim>
					<dim>-1</dim>
				</port>
				<port id="1" precision="I32">
					<dim>-1</dim>
				</port>
				<port id="2" precision="I32">
					<dim>-1</dim>
				</port>
				<port id="3" precision="U8">
					<dim>-1</dim>
				</port>
			</input>
			<output>
				<port id="4" precision="I32">
					<dim>-1</dim>
				</port>
				<port id="5" precision="I32">
					<dim>-1</dim>
				</port>
				<port id="6" precision="I32">
					<dim>-1</dim>
				</port>
				<port id="7" precision="I32">
					<dim>-1</dim>
				</port>
				<port id="8" precision="U8">
					<dim>-1</dim>
				</port>
			</output>
		</layer>
		<layer id="5" name="FuzeRagged_55197" type="FuzeRagged" version="extension">
			<input>
				<port id="0" precision="I32">
					<dim>-1</dim>
				</port>
				<port id="1" precision="I32">
					<dim>-1</dim>
				</port>
				<port id="2" precision="I32">
					<dim>-1</dim>
				</port>
				<port id="3" precision="I32">
					<dim>-1</dim>
				</port>
			</input>
			<output>
				<port id="4" precision="I32">
					<dim>-1</dim>
				</port>
				<port id="5" precision="I32">
					<dim>-1</dim>
				</port>
			</output>
		</layer>
		<layer id="6" name="UTF8Validate_55198" type="UTF8Validate" version="extension">
			<data replace_mode="true" />
			<input>
				<port id="0" precision="I32">
					<dim>-1</dim>
				</port>
				<port id="1" precision="I32">
					<dim>-1</dim>
				</port>
				<port id="2" precision="U8">
					<dim>-1</dim>
				</port>
			</input>
			<output>
				<port id="3" precision="I32">
					<dim>-1</dim>
				</port>
				<port id="4" precision="I32">
					<dim>-1</dim>
				</port>
				<port id="5" precision="U8">
					<dim>-1</dim>
				</port>
			</output>
		</layer>
		<layer id="7" name="Constant_55200" type="Const" version="opset1">
			<data element_type="u8" shape="51" offset="528248" size="51" />
			<output>
				<port id="0" precision="U8">
					<dim>51</dim>
				</port>
			</output>
		</layer>
		<layer id="8" name="Constant_55202" type="Const" version="opset1">
			<data element_type="u8" shape="2" offset="528299" size="2" />
			<output>
				<port id="0" precision="U8">
					<dim>2</dim>
				</port>
			</output>
		</layer>
		<layer id="9" name="RegexNormalization_55203" type="RegexNormalization" version="extension">
			<data global_replace="true" />
			<input>
				<port id="0" precision="I32">
					<dim>-1</dim>
				</port>
				<port id="1" precision="I32">
					<dim>-1</dim>
				</port>
				<port id="2" precision="U8">
					<dim>-1</dim>
				</port>
				<port id="3" precision="U8">
					<dim>51</dim>
				</port>
				<port id="4" precision="U8">
					<dim>2</dim>
				</port>
			</input>
			<output>
				<port id="5" precision="I32">
					<dim>-1</dim>
				</port>
				<port id="6" precision="I32">
					<dim>-1</dim>
				</port>
				<port id="7" precision="U8">
					<dim>-1</dim>
				</port>
			</output>
		</layer>
		<layer id="10" name="StringTensorPack_55204" type="StringTensorPack" version="extension">
			<data mode="begins_ends" />
			<input>
				<port id="0" precision="I32">
					<dim>-1</dim>
				</port>
				<port id="1" precision="I32">
					<dim>-1</dim>
				</port>
				<port id="2" precision="U8">
					<dim>-1</dim>
				</port>
			</input>
			<output>
				<port id="3" precision="STRING" names="string_output">
					<dim>-1</dim>
				</port>
			</output>
		</layer>
		<layer id="11" name="Result_55205" type="Result" version="opset1">
			<input>
				<port id="0" precision="STRING">
					<dim>-1</dim>
				</port>
			</input>
		</layer>
	</layers>
	<edges>
		<edge from-layer="0" from-port="0" to-layer="1" to-port="0" />
		<edge from-layer="1" from-port="1" to-layer="4" to-port="0" />
		<edge from-layer="2" from-port="0" to-layer="3" to-port="0" />
		<edge from-layer="3" from-port="1" to-layer="4" to-port="1" />
		<edge from-layer="3" from-port="2" to-layer="4" to-port="2" />
		<edge from-layer="3" from-port="3" to-layer="4" to-port="3" />
		<edge from-layer="4" from-port="4" to-layer="5" to-port="0" />
		<edge from-layer="4" from-port="5" to-layer="5" to-port="1" />
		<edge from-layer="4" from-port="6" to-layer="5" to-port="2" />
		<edge from-layer="4" from-port="7" to-layer="5" to-port="3" />
		<edge from-layer="4" from-port="8" to-layer="6" to-port="2" />
		<edge from-layer="5" from-port="5" to-layer="6" to-port="1" />
		<edge from-layer="5" from-port="4" to-layer="6" to-port="0" />
		<edge from-layer="6" from-port="3" to-layer="9" to-port="0" />
		<edge from-layer="6" from-port="4" to-layer="9" to-port="1" />
		<edge from-layer="6" from-port="5" to-layer="9" to-port="2" />
		<edge from-layer="7" from-port="0" to-layer="9" to-port="3" />
		<edge from-layer="8" from-port="0" to-layer="9" to-port="4" />
		<edge from-layer="9" from-port="5" to-layer="10" to-port="0" />
		<edge from-layer="9" from-port="6" to-layer="10" to-port="1" />
		<edge from-layer="9" from-port="7" to-layer="10" to-port="2" />
		<edge from-layer="10" from-port="3" to-layer="11" to-port="0" />
	</edges>
	<rt_info>
		<add_attention_mask value="True" />
		<add_prefix_space />
		<add_special_tokens value="True" />
		<bos_token_id value="50257" />
		<clean_up_tokenization_spaces />
		<detokenizer_input_type value="i64" />
		<eos_token_id value="50257" />
		<handle_special_tokens_with_re />
		<number_of_inputs value="1" />
		<openvino_tokenizers_version value="2024.6.0.0" />
		<openvino_version value="2024.6.0" />
		<original_tokenizer_class value="&lt;class 'transformers.models.whisper.tokenization_whisper_fast.WhisperTokenizerFast'>" />
		<pad_token_id value="50257" />
		<sentencepiece_version value="0.2.0" />
		<skip_special_tokens value="True" />
		<streaming_detokenizer value="False" />
		<tokenizer_output_type value="i64" />
		<tokenizers_version value="0.20.3" />
		<transformers_version value="4.46.3" />
		<use_max_padding value="False" />
		<use_sentencepiece_backend value="False" />
		<utf8_replace_mode value="replace" />
		<with_detokenizer value="True" />
	</rt_info>
</net>
